Dataset Size:
Train: 1110 - Valid: 370

Select device cuda
==========================================================================================
Layer (type:depth-idx)                   Output Shape              Param #
==========================================================================================
ResUNetAtt                               [30, 1, 256, 256]         --
├─STEM: 1-1                              [30, 32, 128, 128]        --
│    └─Conv2d: 2-1                       [30, 32, 256, 256]        864
│    └─BatchNorm2d: 2-2                  [30, 32, 256, 256]        64
│    └─ReLU: 2-3                         [30, 32, 256, 256]        --
│    └─MaxPool2d: 2-4                    [30, 32, 128, 128]        --
├─Sequential: 1-2                        [30, 64, 64, 64]          --
│    └─ConvBlock: 2-5                    [30, 64, 64, 64]          55,552
│    └─ConvBlock: 2-6                    [30, 64, 64, 64]          73,984
│    └─ConvBlock: 2-7                    [30, 64, 64, 64]          73,984
├─Sequential: 1-3                        [30, 128, 32, 32]         --
│    └─ConvBlock: 2-8                    [30, 128, 32, 32]         221,696
│    └─ConvBlock: 2-9                    [30, 128, 32, 32]         295,424
│    └─ConvBlock: 2-10                   [30, 128, 32, 32]         295,424
│    └─ConvBlock: 2-11                   [30, 128, 32, 32]         295,424
├─Sequential: 1-4                        [30, 256, 16, 16]         --
│    └─ResBlockAT: 2-12                  [30, 256, 16, 16]         919,040
│    └─ResBlockAT: 2-13                  [30, 256, 16, 16]         1,180,672
│    └─ResBlockAT: 2-14                  [30, 256, 16, 16]         1,180,672
│    └─ResBlockAT: 2-15                  [30, 256, 16, 16]         1,180,672
├─Sequential: 1-5                        [30, 512, 8, 8]           --
│    └─ResBlock: 2-16                    [30, 512, 8, 8]           3,673,088
│    └─ResBlock: 2-17                    [30, 512, 8, 8]           4,720,640
│    └─ResBlock: 2-18                    [30, 512, 8, 8]           4,720,640
├─ModuleList: 1-6                        --                        --
│    └─ResBlockUP: 2-19                  [30, 256, 16, 16]         1,836,288
│    └─Sequential: 2-20                  [30, 256, 16, 16]         2,361,344
├─ModuleList: 1-7                        --                        --
│    └─ResBlockUPAT: 2-21                [30, 128, 32, 32]         459,392
│    └─Sequential: 2-22                  [30, 128, 32, 32]         886,272
├─ModuleList: 1-8                        --                        --
│    └─ConvBlockUP: 2-23                 [30, 64, 64, 64]          106,816
│    └─Sequential: 2-24                  [30, 64, 64, 64]          221,952
├─ModuleList: 1-9                        --                        --
│    └─ConvBlockUP: 2-25                 [30, 32, 128, 128]        26,784
│    └─Sequential: 2-26                  [30, 32, 128, 128]        37,120
├─SegHEAD: 1-10                          [30, 1, 256, 256]         --
│    └─Sequential: 2-27                  [30, 16, 256, 256]        2,096
│    └─Sequential: 2-28                  [30, 1, 256, 256]         22
├─ModuleList: 1-11                       --                        --
│    └─ResBlockUP: 2-29                  [30, 256, 16, 16]         1,836,288
│    └─Sequential: 2-30                  [30, 256, 16, 16]         2,361,344
├─ModuleList: 1-12                       --                        --
│    └─ResBlockUPAT: 2-31                [30, 128, 32, 32]         459,392
│    └─Sequential: 2-32                  [30, 128, 32, 32]         886,272
├─ModuleList: 1-13                       --                        --
│    └─ConvBlockUP: 2-33                 [30, 64, 64, 64]          106,816
│    └─Sequential: 2-34                  [30, 64, 64, 64]          221,952
├─ModuleList: 1-14                       --                        --
│    └─ConvBlockUP: 2-35                 [30, 32, 128, 128]        26,784
│    └─Sequential: 2-36                  [30, 32, 128, 128]        37,120
├─SegHEAD: 1-15                          [30, 1, 256, 256]         --
│    └─Sequential: 2-37                  [30, 16, 256, 256]        2,096
│    └─Sequential: 2-38                  [30, 1, 256, 256]         22
==========================================================================================
Total params: 30,764,012
Trainable params: 30,764,012
Non-trainable params: 0
Total mult-adds (Units.GIGABYTES): 418.14
==========================================================================================
Input size (MB): 23.59
Forward/backward pass size (MB): 10239.34
Params size (MB): 123.06
Estimated Total Size (MB): 10385.99
…
[I 2025-08-04 16:45:01,012] Trial 16 finished with values: [0.9441250482894099, -0.16875408231840316] and parameters: {'step_1': 'C', 'step_2': 'C', 'step_3': 'AT', 'step_4': 'NT'}.
**************************************
Fold 4 Time: 0h 57m 44s
**************************************
Dataset Size:
Train: 1110 - Valid: 370

Select device cuda
==========================================================================================
Layer (type:depth-idx)                   Output Shape              Param #
==========================================================================================
ResUNetAtt                               [30, 1, 256, 256]         --
├─STEM: 1-1                              [30, 32, 128, 128]        --
│    └─Conv2d: 2-1                       [30, 32, 256, 256]        864
│    └─BatchNorm2d: 2-2                  [30, 32, 256, 256]        64
│    └─ReLU: 2-3                         [30, 32, 256, 256]        --
│    └─MaxPool2d: 2-4                    [30, 32, 128, 128]        --
├─Sequential: 1-2                        [30, 64, 64, 64]          --
│    └─ResBlockAT: 2-5                   [30, 64, 64, 64]          57,728
│    └─ResBlockAT: 2-6                   [30, 64, 64, 64]          73,984
│    └─ResBlockAT: 2-7                   [30, 64, 64, 64]          73,984
├─Sequential: 1-3                        [30, 128, 32, 32]         --
│    └─ConvBlock: 2-8                    [30, 128, 32, 32]         221,696
│    └─ConvBlock: 2-9                    [30, 128, 32, 32]         295,424
│    └─ConvBlock: 2-10                   [30, 128, 32, 32]         295,424
│    └─ConvBlock: 2-11                   [30, 128, 32, 32]         295,424
├─Sequential: 1-4                        [30, 256, 16, 16]         --
│    └─ResBlock: 2-12                    [30, 256, 16, 16]         919,040
│    └─ResBlock: 2-13                    [30, 256, 16, 16]         1,180,672
│    └─ResBlock: 2-14                    [30, 256, 16, 16]         1,180,672
│    └─ResBlock: 2-15                    [30, 256, 16, 16]         1,180,672
├─Sequential: 1-5                        [30, 512, 8, 8]           --
│    └─ConvBlock: 2-16                   [30, 512, 8, 8]           3,540,992
│    └─ConvBlock: 2-17                   [30, 512, 8, 8]           4,720,640
│    └─ConvBlock: 2-18                   [30, 512, 8, 8]           4,720,640
├─ModuleList: 1-6                        --                        --
│    └─ConvBlockUP: 2-19                 [30, 256, 16, 16]         1,705,216
│    └─Sequential: 2-20                  [30, 256, 16, 16]         2,361,344
├─ModuleList: 1-7                        --                        --
│    └─ResBlockUP: 2-21                  [30, 128, 32, 32]         459,392
│    └─Sequential: 2-22                  [30, 128, 32, 32]         886,272
├─ModuleList: 1-8                        --                        --
│    └─ConvBlockUP: 2-23                 [30, 64, 64, 64]          106,816
│    └─Sequential: 2-24                  [30, 64, 64, 64]          221,952
├─ModuleList: 1-9                        --                        --
│    └─ResBlockUPAT: 2-25                [30, 32, 128, 128]        28,832
│    └─Sequential: 2-26                  [30, 32, 128, 128]        37,120
├─SegHEAD: 1-10                          [30, 1, 256, 256]         --
│    └─Sequential: 2-27                  [30, 16, 256, 256]        2,096
│    └─Sequential: 2-28                  [30, 1, 256, 256]         22
├─ModuleList: 1-11                       --                        --
│    └─ConvBlockUP: 2-29                 [30, 256, 16, 16]         1,705,216
│    └─Sequential: 2-30                  [30, 256, 16, 16]         2,361,344
├─ModuleList: 1-12                       --                        --
│    └─ResBlockUP: 2-31                  [30, 128, 32, 32]         459,392
│    └─Sequential: 2-32                  [30, 128, 32, 32]         886,272
├─ModuleList: 1-13                       --                        --
│    └─ConvBlockUP: 2-33                 [30, 64, 64, 64]          106,816
│    └─Sequential: 2-34                  [30, 64, 64, 64]          221,952
├─ModuleList: 1-14                       --                        --
│    └─ResBlockUPAT: 2-35                [30, 32, 128, 128]        28,832
│    └─Sequential: 2-36                  [30, 32, 128, 128]        37,120
├─SegHEAD: 1-15                          [30, 1, 256, 256]         --
│    └─Sequential: 2-37                  [30, 16, 256, 256]        2,096
│    └─Sequential: 2-38                  [30, 1, 256, 256]         22
==========================================================================================
Total params: 30,376,044
Trainable params: 30,376,044
Non-trainable params: 0
Total mult-adds (Units.GIGABYTES): 418.14
==========================================================================================
Input size (MB): 23.59
Forward/backward pass size (MB): 10569.65
Params size (MB): 121.50
Estimated Total Size (MB): 10714.74
…
[I 2025-08-04 21:59:13,720] Trial 19 finished with values: [0.9536754949897602, 0.8661189018465799] and parameters: {'step_1': 'AT', 'step_2': 'C', 'step_3': 'NT', 'step_4': 'C'}.
**************************************
Fold 4 Time: 1h 2m 3286s
**************************************
Dataset Size:
Train: 1110 - Valid: 370

Select device cuda
==========================================================================================
Layer (type:depth-idx)                   Output Shape              Param #
==========================================================================================
ResUNetAtt                               [30, 1, 256, 256]         --
├─STEM: 1-1                              [30, 32, 128, 128]        --
│    └─Conv2d: 2-1                       [30, 32, 256, 256]        864
│    └─BatchNorm2d: 2-2                  [30, 32, 256, 256]        64
│    └─ReLU: 2-3                         [30, 32, 256, 256]        --
│    └─MaxPool2d: 2-4                    [30, 32, 128, 128]        --
├─Sequential: 1-2                        [30, 64, 64, 64]          --
│    └─ConvBlock: 2-5                    [30, 64, 64, 64]          55,552
│    └─ConvBlock: 2-6                    [30, 64, 64, 64]          73,984
│    └─ConvBlock: 2-7                    [30, 64, 64, 64]          73,984
├─Sequential: 1-3                        [30, 128, 32, 32]         --
│    └─ConvBlock: 2-8                    [30, 128, 32, 32]         221,696
│    └─ConvBlock: 2-9                    [30, 128, 32, 32]         295,424
│    └─ConvBlock: 2-10                   [30, 128, 32, 32]         295,424
│    └─ConvBlock: 2-11                   [30, 128, 32, 32]         295,424
├─Sequential: 1-4                        [30, 256, 16, 16]         --
│    └─ConvBlock: 2-12                   [30, 256, 16, 16]         885,760
│    └─ConvBlock: 2-13                   [30, 256, 16, 16]         1,180,672
│    └─ConvBlock: 2-14                   [30, 256, 16, 16]         1,180,672
│    └─ConvBlock: 2-15                   [30, 256, 16, 16]         1,180,672
├─Sequential: 1-5                        [30, 512, 8, 8]           --
│    └─ConvBlock: 2-16                   [30, 512, 8, 8]           3,540,992
│    └─ConvBlock: 2-17                   [30, 512, 8, 8]           4,720,640
│    └─ConvBlock: 2-18                   [30, 512, 8, 8]           4,720,640
├─ModuleList: 1-6                        --                        --
│    └─ConvBlockUP: 2-19                 [30, 256, 16, 16]         1,705,216
│    └─Sequential: 2-20                  [30, 256, 16, 16]         2,361,344
├─ModuleList: 1-7                        --                        --
│    └─ConvBlockUP: 2-21                 [30, 128, 32, 32]         426,624
│    └─Sequential: 2-22                  [30, 128, 32, 32]         886,272
├─ModuleList: 1-8                        --                        --
│    └─ConvBlockUP: 2-23                 [30, 64, 64, 64]          106,816
│    └─Sequential: 2-24                  [30, 64, 64, 64]          221,952
├─ModuleList: 1-9                        --                        --
│    └─ConvBlockUP: 2-25                 [30, 32, 128, 128]        26,784
│    └─Sequential: 2-26                  [30, 32, 128, 128]        37,120
├─SegHEAD: 1-10                          [30, 1, 256, 256]         --
│    └─Sequential: 2-27                  [30, 16, 256, 256]        2,096
│    └─Sequential: 2-28                  [30, 1, 256, 256]         22
├─ModuleList: 1-11                       --                        --
│    └─ConvBlockUP: 2-29                 [30, 256, 16, 16]         1,705,216
│    └─Sequential: 2-30                  [30, 256, 16, 16]         2,361,344
├─ModuleList: 1-12                       --                        --
│    └─ConvBlockUP: 2-31                 [30, 128, 32, 32]         426,624
│    └─Sequential: 2-32                  [30, 128, 32, 32]         886,272
├─ModuleList: 1-13                       --                        --
│    └─ConvBlockUP: 2-33                 [30, 64, 64, 64]          106,816
│    └─Sequential: 2-34                  [30, 64, 64, 64]          221,952
├─ModuleList: 1-14                       --                        --
│    └─ConvBlockUP: 2-35                 [30, 32, 128, 128]        26,784
│    └─Sequential: 2-36                  [30, 32, 128, 128]        37,120
├─SegHEAD: 1-15                          [30, 1, 256, 256]         --
│    └─Sequential: 2-37                  [30, 16, 256, 256]        2,096
│    └─Sequential: 2-38                  [30, 1, 256, 256]         22
==========================================================================================
Total params: 30,270,956
Trainable params: 30,270,956
Non-trainable params: 0
Total mult-adds (Units.GIGABYTES): 413.61
==========================================================================================
Input size (MB): 23.59
Forward/backward pass size (MB): 10097.79
Params size (MB): 121.08
Estimated Total Size (MB): 10242.46
…
[I 2025-08-05 07:06:10,694] Trial 24 finished with values: [0.9477880303918838, 0.346610603211627] and parameters: {'step_1': 'NT', 'step_2': 'C', 'step_3': 'NT', 'step_4': 'C'}.
**************************************
Fold 4 Time: 0h 56m 0s
**************************************
Dataset Size:
Train: 1110 - Valid: 370

Select device cuda
==========================================================================================
Layer (type:depth-idx)                   Output Shape              Param #
==========================================================================================
ResUNetAtt                               [30, 1, 256, 256]         --
├─STEM: 1-1                              [30, 32, 128, 128]        --
│    └─Conv2d: 2-1                       [30, 32, 256, 256]        864
│    └─BatchNorm2d: 2-2                  [30, 32, 256, 256]        64
│    └─ReLU: 2-3                         [30, 32, 256, 256]        --
│    └─MaxPool2d: 2-4                    [30, 32, 128, 128]        --
├─Sequential: 1-2                        [30, 64, 64, 64]          --
│    └─ConvBlock: 2-5                    [30, 64, 64, 64]          55,552
│    └─ConvBlock: 2-6                    [30, 64, 64, 64]          73,984
│    └─ConvBlock: 2-7                    [30, 64, 64, 64]          73,984
├─Sequential: 1-3                        [30, 128, 32, 32]         --
│    └─ResBlock: 2-8                     [30, 128, 32, 32]         230,144
│    └─ResBlock: 2-9                     [30, 128, 32, 32]         295,424
│    └─ResBlock: 2-10                    [30, 128, 32, 32]         295,424
│    └─ResBlock: 2-11                    [30, 128, 32, 32]         295,424
├─Sequential: 1-4                        [30, 256, 16, 16]         --
│    └─ResBlock: 2-12                    [30, 256, 16, 16]         919,040
│    └─ResBlock: 2-13                    [30, 256, 16, 16]         1,180,672
│    └─ResBlock: 2-14                    [30, 256, 16, 16]         1,180,672
│    └─ResBlock: 2-15                    [30, 256, 16, 16]         1,180,672
├─Sequential: 1-5                        [30, 512, 8, 8]           --
│    └─ResBlock: 2-16                    [30, 512, 8, 8]           3,673,088
│    └─ResBlock: 2-17                    [30, 512, 8, 8]           4,720,640
│    └─ResBlock: 2-18                    [30, 512, 8, 8]           4,720,640
├─ModuleList: 1-6                        --                        --
│    └─ResBlockUP: 2-19                  [30, 256, 16, 16]         1,836,288
│    └─Sequential: 2-20                  [30, 256, 16, 16]         2,361,344
├─ModuleList: 1-7                        --                        --
│    └─ResBlockUP: 2-21                  [30, 128, 32, 32]         459,392
│    └─Sequential: 2-22                  [30, 128, 32, 32]         886,272
├─ModuleList: 1-8                        --                        --
│    └─ResBlockUP: 2-23                  [30, 64, 64, 64]          115,008
│    └─Sequential: 2-24                  [30, 64, 64, 64]          221,952
├─ModuleList: 1-9                        --                        --
│    └─ConvBlockUP: 2-25                 [30, 32, 128, 128]        26,784
│    └─Sequential: 2-26                  [30, 32, 128, 128]        37,120
├─SegHEAD: 1-10                          [30, 1, 256, 256]         --
│    └─Sequential: 2-27                  [30, 16, 256, 256]        2,096
│    └─Sequential: 2-28                  [30, 1, 256, 256]         22
├─ModuleList: 1-11                       --                        --
│    └─ResBlockUP: 2-29                  [30, 256, 16, 16]         1,836,288
│    └─Sequential: 2-30                  [30, 256, 16, 16]         2,361,344
├─ModuleList: 1-12                       --                        --
│    └─ResBlockUP: 2-31                  [30, 128, 32, 32]         459,392
│    └─Sequential: 2-32                  [30, 128, 32, 32]         886,272
├─ModuleList: 1-13                       --                        --
│    └─ResBlockUP: 2-33                  [30, 64, 64, 64]          115,008
│    └─Sequential: 2-34                  [30, 64, 64, 64]          221,952
├─ModuleList: 1-14                       --                        --
│    └─ConvBlockUP: 2-35                 [30, 32, 128, 128]        26,784
│    └─Sequential: 2-36                  [30, 32, 128, 128]        37,120
├─SegHEAD: 1-15                          [30, 1, 256, 256]         --
│    └─Sequential: 2-37                  [30, 16, 256, 256]        2,096
│    └─Sequential: 2-38                  [30, 1, 256, 256]         22
==========================================================================================
Total params: 30,788,844
Trainable params: 30,788,844
Non-trainable params: 0
Total mult-adds (Units.GIGABYTES): 420.41
==========================================================================================
Input size (MB): 23.59
Forward/backward pass size (MB): 10428.09
Params size (MB): 123.16
Estimated Total Size (MB): 10574.84
…
