Dataset Size:
Train: 1110 - Valid: 370

Select device cuda
==========================================================================================
Layer (type:depth-idx)                   Output Shape              Param #
==========================================================================================
ResUNetAtt                               [30, 1, 256, 256]         --
├─STEM: 1-1                              [30, 32, 128, 128]        --
│    └─Conv2d: 2-1                       [30, 32, 256, 256]        864
│    └─BatchNorm2d: 2-2                  [30, 32, 256, 256]        64
│    └─ReLU: 2-3                         [30, 32, 256, 256]        --
│    └─MaxPool2d: 2-4                    [30, 32, 128, 128]        --
├─Sequential: 1-2                        [30, 64, 64, 64]          --
│    └─ConvBlock: 2-5                    [30, 64, 64, 64]          55,552
│    └─ConvBlock: 2-6                    [30, 64, 64, 64]          73,984
│    └─ConvBlock: 2-7                    [30, 64, 64, 64]          73,984
├─Sequential: 1-3                        [30, 128, 32, 32]         --
│    └─ResBlockAT: 2-8                   [30, 128, 32, 32]         230,144
│    └─ResBlockAT: 2-9                   [30, 128, 32, 32]         295,424
│    └─ResBlockAT: 2-10                  [30, 128, 32, 32]         295,424
│    └─ResBlockAT: 2-11                  [30, 128, 32, 32]         295,424
├─Sequential: 1-4                        [30, 256, 16, 16]         --
│    └─ConvBlock: 2-12                   [30, 256, 16, 16]         885,760
│    └─ConvBlock: 2-13                   [30, 256, 16, 16]         1,180,672
│    └─ConvBlock: 2-14                   [30, 256, 16, 16]         1,180,672
│    └─ConvBlock: 2-15                   [30, 256, 16, 16]         1,180,672
├─Sequential: 1-5                        [30, 512, 8, 8]           --
│    └─ResBlockAT: 2-16                  [30, 512, 8, 8]           3,673,088
│    └─ResBlockAT: 2-17                  [30, 512, 8, 8]           4,720,640
│    └─ResBlockAT: 2-18                  [30, 512, 8, 8]           4,720,640
├─ModuleList: 1-6                        --                        --
│    └─ResBlockUPAT: 2-19                [30, 256, 16, 16]         1,836,288
│    └─Sequential: 2-20                  [30, 256, 16, 16]         2,361,344
├─ModuleList: 1-7                        --                        --
│    └─ConvBlockUP: 2-21                 [30, 128, 32, 32]         426,624
│    └─Sequential: 2-22                  [30, 128, 32, 32]         886,272
├─ModuleList: 1-8                        --                        --
│    └─ResBlockUPAT: 2-23                [30, 64, 64, 64]          115,008
│    └─Sequential: 2-24                  [30, 64, 64, 64]          221,952
├─ModuleList: 1-9                        --                        --
│    └─ConvBlockUP: 2-25                 [30, 32, 128, 128]        26,784
│    └─Sequential: 2-26                  [30, 32, 128, 128]        37,120
├─SegHEAD: 1-10                          [30, 1, 256, 256]         --
│    └─Sequential: 2-27                  [30, 16, 256, 256]        2,096
│    └─Sequential: 2-28                  [30, 1, 256, 256]         22
├─ModuleList: 1-11                       --                        --
│    └─ResBlockUPAT: 2-29                [30, 256, 16, 16]         1,836,288
│    └─Sequential: 2-30                  [30, 256, 16, 16]         2,361,344
├─ModuleList: 1-12                       --                        --
│    └─ConvBlockUP: 2-31                 [30, 128, 32, 32]         426,624
│    └─Sequential: 2-32                  [30, 128, 32, 32]         886,272
├─ModuleList: 1-13                       --                        --
│    └─ResBlockUPAT: 2-33                [30, 64, 64, 64]          115,008
│    └─Sequential: 2-34                  [30, 64, 64, 64]          221,952
├─ModuleList: 1-14                       --                        --
│    └─ConvBlockUP: 2-35                 [30, 32, 128, 128]        26,784
│    └─Sequential: 2-36                  [30, 32, 128, 128]        37,120
├─SegHEAD: 1-15                          [30, 1, 256, 256]         --
│    └─Sequential: 2-37                  [30, 16, 256, 256]        2,096
│    └─Sequential: 2-38                  [30, 1, 256, 256]         22
==========================================================================================
Total params: 30,690,028
Trainable params: 30,690,028
Non-trainable params: 0
Total mult-adds (Units.GIGABYTES): 418.14
==========================================================================================
Input size (MB): 23.59
Forward/backward pass size (MB): 10333.72
Params size (MB): 122.76
Estimated Total Size (MB): 10480.07
…
[I 2025-07-30 02:22:55,028] Trial 4 finished with values: [0.9483818272368029, 0.7896829228862581] and parameters: {'step_1': 'C', 'step_2': 'AT', 'step_3': 'C', 'step_4': 'AT'}.
**************************************
Fold 4 Time: 2h 23m 6532s
**************************************
Dataset Size:
Train: 1110 - Valid: 370

Select device cuda
==========================================================================================
Layer (type:depth-idx)                   Output Shape              Param #
==========================================================================================
ResUNetAtt                               [30, 1, 256, 256]         --
├─STEM: 1-1                              [30, 32, 128, 128]        --
│    └─Conv2d: 2-1                       [30, 32, 256, 256]        864
│    └─BatchNorm2d: 2-2                  [30, 32, 256, 256]        64
│    └─ReLU: 2-3                         [30, 32, 256, 256]        --
│    └─MaxPool2d: 2-4                    [30, 32, 128, 128]        --
├─Sequential: 1-2                        [30, 64, 64, 64]          --
│    └─ResBlockAT: 2-5                   [30, 64, 64, 64]          57,728
│    └─ResBlockAT: 2-6                   [30, 64, 64, 64]          73,984
│    └─ResBlockAT: 2-7                   [30, 64, 64, 64]          73,984
├─Sequential: 1-3                        [30, 128, 32, 32]         --
│    └─ResBlockAT: 2-8                   [30, 128, 32, 32]         230,144
│    └─ResBlockAT: 2-9                   [30, 128, 32, 32]         295,424
│    └─ResBlockAT: 2-10                  [30, 128, 32, 32]         295,424
│    └─ResBlockAT: 2-11                  [30, 128, 32, 32]         295,424
├─Sequential: 1-4                        [30, 256, 16, 16]         --
│    └─ResBlock: 2-12                    [30, 256, 16, 16]         919,040
│    └─ResBlock: 2-13                    [30, 256, 16, 16]         1,180,672
│    └─ResBlock: 2-14                    [30, 256, 16, 16]         1,180,672
│    └─ResBlock: 2-15                    [30, 256, 16, 16]         1,180,672
├─Sequential: 1-5                        [30, 512, 8, 8]           --
│    └─ConvBlock: 2-16                   [30, 512, 8, 8]           3,540,992
│    └─ConvBlock: 2-17                   [30, 512, 8, 8]           4,720,640
│    └─ConvBlock: 2-18                   [30, 512, 8, 8]           4,720,640
├─ModuleList: 1-6                        --                        --
│    └─ConvBlockUP: 2-19                 [30, 256, 16, 16]         1,705,216
│    └─Sequential: 2-20                  [30, 256, 16, 16]         2,361,344
├─ModuleList: 1-7                        --                        --
│    └─ResBlockUP: 2-21                  [30, 128, 32, 32]         459,392
│    └─Sequential: 2-22                  [30, 128, 32, 32]         886,272
├─ModuleList: 1-8                        --                        --
│    └─ResBlockUPAT: 2-23                [30, 64, 64, 64]          115,008
│    └─Sequential: 2-24                  [30, 64, 64, 64]          221,952
├─ModuleList: 1-9                        --                        --
│    └─ResBlockUPAT: 2-25                [30, 32, 128, 128]        28,832
│    └─Sequential: 2-26                  [30, 32, 128, 128]        37,120
├─SegHEAD: 1-10                          [30, 1, 256, 256]         --
│    └─Sequential: 2-27                  [30, 16, 256, 256]        2,096
│    └─Sequential: 2-28                  [30, 1, 256, 256]         22
├─ModuleList: 1-11                       --                        --
│    └─ConvBlockUP: 2-29                 [30, 256, 16, 16]         1,705,216
│    └─Sequential: 2-30                  [30, 256, 16, 16]         2,361,344
├─ModuleList: 1-12                       --                        --
│    └─ResBlockUP: 2-31                  [30, 128, 32, 32]         459,392
│    └─Sequential: 2-32                  [30, 128, 32, 32]         886,272
├─ModuleList: 1-13                       --                        --
│    └─ResBlockUPAT: 2-33                [30, 64, 64, 64]          115,008
│    └─Sequential: 2-34                  [30, 64, 64, 64]          221,952
├─ModuleList: 1-14                       --                        --
│    └─ResBlockUPAT: 2-35                [30, 32, 128, 128]        28,832
│    └─Sequential: 2-36                  [30, 32, 128, 128]        37,120
├─SegHEAD: 1-15                          [30, 1, 256, 256]         --
│    └─Sequential: 2-37                  [30, 16, 256, 256]        2,096
│    └─Sequential: 2-38                  [30, 1, 256, 256]         22
==========================================================================================
Total params: 30,400,876
Trainable params: 30,400,876
Non-trainable params: 0
Total mult-adds (Units.GIGABYTES): 420.41
==========================================================================================
Input size (MB): 23.59
Forward/backward pass size (MB): 10758.39
Params size (MB): 121.60
Estimated Total Size (MB): 10903.59
…
[I 2025-07-30 14:24:14,018] Trial 6 finished with values: [0.9547765749614531, 0.851245248682104] and parameters: {'step_1': 'AT', 'step_2': 'AT', 'step_3': 'NT', 'step_4': 'C'}.
**************************************
Fold 4 Time: 2h 24m 6493s
**************************************
Dataset Size:
Train: 1110 - Valid: 370

Select device cuda
==========================================================================================
Layer (type:depth-idx)                   Output Shape              Param #
==========================================================================================
ResUNetAtt                               [30, 1, 256, 256]         --
├─STEM: 1-1                              [30, 32, 128, 128]        --
│    └─Conv2d: 2-1                       [30, 32, 256, 256]        864
│    └─BatchNorm2d: 2-2                  [30, 32, 256, 256]        64
│    └─ReLU: 2-3                         [30, 32, 256, 256]        --
│    └─MaxPool2d: 2-4                    [30, 32, 128, 128]        --
├─Sequential: 1-2                        [30, 64, 64, 64]          --
│    └─ConvBlock: 2-5                    [30, 64, 64, 64]          55,552
│    └─ConvBlock: 2-6                    [30, 64, 64, 64]          73,984
│    └─ConvBlock: 2-7                    [30, 64, 64, 64]          73,984
├─Sequential: 1-3                        [30, 128, 32, 32]         --
│    └─ResBlockAT: 2-8                   [30, 128, 32, 32]         230,144
│    └─ResBlockAT: 2-9                   [30, 128, 32, 32]         295,424
│    └─ResBlockAT: 2-10                  [30, 128, 32, 32]         295,424
│    └─ResBlockAT: 2-11                  [30, 128, 32, 32]         295,424
├─Sequential: 1-4                        [30, 256, 16, 16]         --
│    └─ResBlockAT: 2-12                  [30, 256, 16, 16]         919,040
│    └─ResBlockAT: 2-13                  [30, 256, 16, 16]         1,180,672
│    └─ResBlockAT: 2-14                  [30, 256, 16, 16]         1,180,672
│    └─ResBlockAT: 2-15                  [30, 256, 16, 16]         1,180,672
├─Sequential: 1-5                        [30, 512, 8, 8]           --
│    └─ResBlock: 2-16                    [30, 512, 8, 8]           3,673,088
│    └─ResBlock: 2-17                    [30, 512, 8, 8]           4,720,640
│    └─ResBlock: 2-18                    [30, 512, 8, 8]           4,720,640
├─ModuleList: 1-6                        --                        --
│    └─ResBlockUP: 2-19                  [30, 256, 16, 16]         1,836,288
│    └─Sequential: 2-20                  [30, 256, 16, 16]         2,361,344
├─ModuleList: 1-7                        --                        --
│    └─ResBlockUPAT: 2-21                [30, 128, 32, 32]         459,392
│    └─Sequential: 2-22                  [30, 128, 32, 32]         886,272
├─ModuleList: 1-8                        --                        --
│    └─ResBlockUPAT: 2-23                [30, 64, 64, 64]          115,008
│    └─Sequential: 2-24                  [30, 64, 64, 64]          221,952
├─ModuleList: 1-9                        --                        --
│    └─ConvBlockUP: 2-25                 [30, 32, 128, 128]        26,784
│    └─Sequential: 2-26                  [30, 32, 128, 128]        37,120
├─SegHEAD: 1-10                          [30, 1, 256, 256]         --
│    └─Sequential: 2-27                  [30, 16, 256, 256]        2,096
│    └─Sequential: 2-28                  [30, 1, 256, 256]         22
├─ModuleList: 1-11                       --                        --
│    └─ResBlockUP: 2-29                  [30, 256, 16, 16]         1,836,288
│    └─Sequential: 2-30                  [30, 256, 16, 16]         2,361,344
├─ModuleList: 1-12                       --                        --
│    └─ResBlockUPAT: 2-31                [30, 128, 32, 32]         459,392
│    └─Sequential: 2-32                  [30, 128, 32, 32]         886,272
├─ModuleList: 1-13                       --                        --
│    └─ResBlockUPAT: 2-33                [30, 64, 64, 64]          115,008
│    └─Sequential: 2-34                  [30, 64, 64, 64]          221,952
├─ModuleList: 1-14                       --                        --
│    └─ConvBlockUP: 2-35                 [30, 32, 128, 128]        26,784
│    └─Sequential: 2-36                  [30, 32, 128, 128]        37,120
├─SegHEAD: 1-15                          [30, 1, 256, 256]         --
│    └─Sequential: 2-37                  [30, 16, 256, 256]        2,096
│    └─Sequential: 2-38                  [30, 1, 256, 256]         22
==========================================================================================
Total params: 30,788,844
Trainable params: 30,788,844
Non-trainable params: 0
Total mult-adds (Units.GIGABYTES): 420.41
==========================================================================================
Input size (MB): 23.59
Forward/backward pass size (MB): 10428.09
Params size (MB): 123.16
Estimated Total Size (MB): 10574.84
…
[I 2025-07-30 22:32:54,701] Trial 7 finished with values: [0.9493426378097031, 0.8642195241631506] and parameters: {'step_1': 'C', 'step_2': 'AT', 'step_3': 'AT', 'step_4': 'NT'}.
**************************************
Fold 4 Time: 1h 4m 3283s
**************************************
Dataset Size:
Train: 1110 - Valid: 370

Select device cuda
==========================================================================================
Layer (type:depth-idx)                   Output Shape              Param #
==========================================================================================
ResUNetAtt                               [30, 1, 256, 256]         --
├─STEM: 1-1                              [30, 32, 128, 128]        --
│    └─Conv2d: 2-1                       [30, 32, 256, 256]        864
│    └─BatchNorm2d: 2-2                  [30, 32, 256, 256]        64
│    └─ReLU: 2-3                         [30, 32, 256, 256]        --
│    └─MaxPool2d: 2-4                    [30, 32, 128, 128]        --
├─Sequential: 1-2                        [30, 64, 64, 64]          --
│    └─ResBlock: 2-5                     [30, 64, 64, 64]          57,728
│    └─ResBlock: 2-6                     [30, 64, 64, 64]          73,984
│    └─ResBlock: 2-7                     [30, 64, 64, 64]          73,984
├─Sequential: 1-3                        [30, 128, 32, 32]         --
│    └─ResBlock: 2-8                     [30, 128, 32, 32]         230,144
│    └─ResBlock: 2-9                     [30, 128, 32, 32]         295,424
│    └─ResBlock: 2-10                    [30, 128, 32, 32]         295,424
│    └─ResBlock: 2-11                    [30, 128, 32, 32]         295,424
├─Sequential: 1-4                        [30, 256, 16, 16]         --
│    └─ResBlock: 2-12                    [30, 256, 16, 16]         919,040
│    └─ResBlock: 2-13                    [30, 256, 16, 16]         1,180,672
│    └─ResBlock: 2-14                    [30, 256, 16, 16]         1,180,672
│    └─ResBlock: 2-15                    [30, 256, 16, 16]         1,180,672
├─Sequential: 1-5                        [30, 512, 8, 8]           --
│    └─ResBlockAT: 2-16                  [30, 512, 8, 8]           3,673,088
│    └─ResBlockAT: 2-17                  [30, 512, 8, 8]           4,720,640
│    └─ResBlockAT: 2-18                  [30, 512, 8, 8]           4,720,640
├─ModuleList: 1-6                        --                        --
│    └─ResBlockUPAT: 2-19                [30, 256, 16, 16]         1,836,288
│    └─Sequential: 2-20                  [30, 256, 16, 16]         2,361,344
├─ModuleList: 1-7                        --                        --
│    └─ResBlockUP: 2-21                  [30, 128, 32, 32]         459,392
│    └─Sequential: 2-22                  [30, 128, 32, 32]         886,272
├─ModuleList: 1-8                        --                        --
│    └─ResBlockUP: 2-23                  [30, 64, 64, 64]          115,008
│    └─Sequential: 2-24                  [30, 64, 64, 64]          221,952
├─ModuleList: 1-9                        --                        --
│    └─ResBlockUP: 2-25                  [30, 32, 128, 128]        28,832
│    └─Sequential: 2-26                  [30, 32, 128, 128]        37,120
├─SegHEAD: 1-10                          [30, 1, 256, 256]         --
│    └─Sequential: 2-27                  [30, 16, 256, 256]        2,096
│    └─Sequential: 2-28                  [30, 1, 256, 256]         22
├─ModuleList: 1-11                       --                        --
│    └─ResBlockUPAT: 2-29                [30, 256, 16, 16]         1,836,288
│    └─Sequential: 2-30                  [30, 256, 16, 16]         2,361,344
├─ModuleList: 1-12                       --                        --
│    └─ResBlockUP: 2-31                  [30, 128, 32, 32]         459,392
│    └─Sequential: 2-32                  [30, 128, 32, 32]         886,272
├─ModuleList: 1-13                       --                        --
│    └─ResBlockUP: 2-33                  [30, 64, 64, 64]          115,008
│    └─Sequential: 2-34                  [30, 64, 64, 64]          221,952
├─ModuleList: 1-14                       --                        --
│    └─ResBlockUP: 2-35                  [30, 32, 128, 128]        28,832
│    └─Sequential: 2-36                  [30, 32, 128, 128]        37,120
├─SegHEAD: 1-15                          [30, 1, 256, 256]         --
│    └─Sequential: 2-37                  [30, 16, 256, 256]        2,096
│    └─Sequential: 2-38                  [30, 1, 256, 256]         22
==========================================================================================
Total params: 30,795,116
Trainable params: 30,795,116
Non-trainable params: 0
Total mult-adds (Units.GIGABYTES): 422.67
==========================================================================================
Input size (MB): 23.59
Forward/backward pass size (MB): 10805.58
Params size (MB): 123.18
Estimated Total Size (MB): 10952.35
…
[I 2025-07-31 13:15:40,359] Trial 9 finished with values: [0.9530020003085576, 0.871367244201708] and parameters: {'step_1': 'NT', 'step_2': 'NT', 'step_3': 'AT', 'step_4': 'AT'}.
**************************************
Fold 4 Time: 2h 24m 6481s
**************************************
Dataset Size:
Train: 1110 - Valid: 370

Select device cuda
==========================================================================================
Layer (type:depth-idx)                   Output Shape              Param #
==========================================================================================
ResUNetAtt                               [30, 1, 256, 256]         --
├─STEM: 1-1                              [30, 32, 128, 128]        --
│    └─Conv2d: 2-1                       [30, 32, 256, 256]        864
│    └─BatchNorm2d: 2-2                  [30, 32, 256, 256]        64
│    └─ReLU: 2-3                         [30, 32, 256, 256]        --
│    └─MaxPool2d: 2-4                    [30, 32, 128, 128]        --
├─Sequential: 1-2                        [30, 64, 64, 64]          --
│    └─ConvBlock: 2-5                    [30, 64, 64, 64]          55,552
│    └─ConvBlock: 2-6                    [30, 64, 64, 64]          73,984
│    └─ConvBlock: 2-7                    [30, 64, 64, 64]          73,984
├─Sequential: 1-3                        [30, 128, 32, 32]         --
│    └─ResBlock: 2-8                     [30, 128, 32, 32]         230,144
│    └─ResBlock: 2-9                     [30, 128, 32, 32]         295,424
│    └─ResBlock: 2-10                    [30, 128, 32, 32]         295,424
│    └─ResBlock: 2-11                    [30, 128, 32, 32]         295,424
├─Sequential: 1-4                        [30, 256, 16, 16]         --
│    └─ResBlockAT: 2-12                  [30, 256, 16, 16]         919,040
│    └─ResBlockAT: 2-13                  [30, 256, 16, 16]         1,180,672
│    └─ResBlockAT: 2-14                  [30, 256, 16, 16]         1,180,672
│    └─ResBlockAT: 2-15                  [30, 256, 16, 16]         1,180,672
├─Sequential: 1-5                        [30, 512, 8, 8]           --
│    └─ConvBlock: 2-16                   [30, 512, 8, 8]           3,540,992
│    └─ConvBlock: 2-17                   [30, 512, 8, 8]           4,720,640
│    └─ConvBlock: 2-18                   [30, 512, 8, 8]           4,720,640
├─ModuleList: 1-6                        --                        --
│    └─ConvBlockUP: 2-19                 [30, 256, 16, 16]         1,705,216
│    └─Sequential: 2-20                  [30, 256, 16, 16]         2,361,344
├─ModuleList: 1-7                        --                        --
│    └─ResBlockUPAT: 2-21                [30, 128, 32, 32]         459,392
│    └─Sequential: 2-22                  [30, 128, 32, 32]         886,272
├─ModuleList: 1-8                        --                        --
│    └─ResBlockUP: 2-23                  [30, 64, 64, 64]          115,008
│    └─Sequential: 2-24                  [30, 64, 64, 64]          221,952
├─ModuleList: 1-9                        --                        --
│    └─ConvBlockUP: 2-25                 [30, 32, 128, 128]        26,784
│    └─Sequential: 2-26                  [30, 32, 128, 128]        37,120
├─SegHEAD: 1-10                          [30, 1, 256, 256]         --
│    └─Sequential: 2-27                  [30, 16, 256, 256]        2,096
│    └─Sequential: 2-28                  [30, 1, 256, 256]         22
├─ModuleList: 1-11                       --                        --
│    └─ConvBlockUP: 2-29                 [30, 256, 16, 16]         1,705,216
│    └─Sequential: 2-30                  [30, 256, 16, 16]         2,361,344
├─ModuleList: 1-12                       --                        --
│    └─ResBlockUPAT: 2-31                [30, 128, 32, 32]         459,392
│    └─Sequential: 2-32                  [30, 128, 32, 32]         886,272
├─ModuleList: 1-13                       --                        --
│    └─ResBlockUP: 2-33                  [30, 64, 64, 64]          115,008
│    └─Sequential: 2-34                  [30, 64, 64, 64]          221,952
├─ModuleList: 1-14                       --                        --
│    └─ConvBlockUP: 2-35                 [30, 32, 128, 128]        26,784
│    └─Sequential: 2-36                  [30, 32, 128, 128]        37,120
├─SegHEAD: 1-15                          [30, 1, 256, 256]         --
│    └─Sequential: 2-37                  [30, 16, 256, 256]        2,096
│    └─Sequential: 2-38                  [30, 1, 256, 256]         22
==========================================================================================
Total params: 30,394,604
Trainable params: 30,394,604
Non-trainable params: 0
Total mult-adds (Units.GIGABYTES): 418.14
==========================================================================================
Input size (MB): 23.59
Forward/backward pass size (MB): 10380.90
Params size (MB): 121.58
Estimated Total Size (MB): 10526.07
…
[I 2025-08-01 01:09:26,134] Trial 10 finished with values: [0.9524104392254128, 0.8624725563468159] and parameters: {'step_1': 'C', 'step_2': 'NT', 'step_3': 'AT', 'step_4': 'C'}.
**************************************
Fold 4 Time: 2h 23m 6480s
**************************************
Dataset Size:
Train: 1110 - Valid: 370

Select device cuda
==========================================================================================
Layer (type:depth-idx)                   Output Shape              Param #
==========================================================================================
ResUNetAtt                               [30, 1, 256, 256]         --
├─STEM: 1-1                              [30, 32, 128, 128]        --
│    └─Conv2d: 2-1                       [30, 32, 256, 256]        864
│    └─BatchNorm2d: 2-2                  [30, 32, 256, 256]        64
│    └─ReLU: 2-3                         [30, 32, 256, 256]        --
│    └─MaxPool2d: 2-4                    [30, 32, 128, 128]        --
├─Sequential: 1-2                        [30, 64, 64, 64]          --
│    └─ConvBlock: 2-5                    [30, 64, 64, 64]          55,552
│    └─ConvBlock: 2-6                    [30, 64, 64, 64]          73,984
│    └─ConvBlock: 2-7                    [30, 64, 64, 64]          73,984
├─Sequential: 1-3                        [30, 128, 32, 32]         --
│    └─ResBlockAT: 2-8                   [30, 128, 32, 32]         230,144
│    └─ResBlockAT: 2-9                   [30, 128, 32, 32]         295,424
│    └─ResBlockAT: 2-10                  [30, 128, 32, 32]         295,424
│    └─ResBlockAT: 2-11                  [30, 128, 32, 32]         295,424
├─Sequential: 1-4                        [30, 256, 16, 16]         --
│    └─ConvBlock: 2-12                   [30, 256, 16, 16]         885,760
│    └─ConvBlock: 2-13                   [30, 256, 16, 16]         1,180,672
│    └─ConvBlock: 2-14                   [30, 256, 16, 16]         1,180,672
│    └─ConvBlock: 2-15                   [30, 256, 16, 16]         1,180,672
├─Sequential: 1-5                        [30, 512, 8, 8]           --
│    └─ConvBlock: 2-16                   [30, 512, 8, 8]           3,540,992
│    └─ConvBlock: 2-17                   [30, 512, 8, 8]           4,720,640
│    └─ConvBlock: 2-18                   [30, 512, 8, 8]           4,720,640
├─ModuleList: 1-6                        --                        --
│    └─ConvBlockUP: 2-19                 [30, 256, 16, 16]         1,705,216
│    └─Sequential: 2-20                  [30, 256, 16, 16]         2,361,344
├─ModuleList: 1-7                        --                        --
│    └─ConvBlockUP: 2-21                 [30, 128, 32, 32]         426,624
│    └─Sequential: 2-22                  [30, 128, 32, 32]         886,272
├─ModuleList: 1-8                        --                        --
│    └─ResBlockUPAT: 2-23                [30, 64, 64, 64]          115,008
│    └─Sequential: 2-24                  [30, 64, 64, 64]          221,952
├─ModuleList: 1-9                        --                        --
│    └─ConvBlockUP: 2-25                 [30, 32, 128, 128]        26,784
│    └─Sequential: 2-26                  [30, 32, 128, 128]        37,120
├─SegHEAD: 1-10                          [30, 1, 256, 256]         --
│    └─Sequential: 2-27                  [30, 16, 256, 256]        2,096
│    └─Sequential: 2-28                  [30, 1, 256, 256]         22
├─ModuleList: 1-11                       --                        --
│    └─ConvBlockUP: 2-29                 [30, 256, 16, 16]         1,705,216
│    └─Sequential: 2-30                  [30, 256, 16, 16]         2,361,344
├─ModuleList: 1-12                       --                        --
│    └─ConvBlockUP: 2-31                 [30, 128, 32, 32]         426,624
│    └─Sequential: 2-32                  [30, 128, 32, 32]         886,272
├─ModuleList: 1-13                       --                        --
│    └─ResBlockUPAT: 2-33                [30, 64, 64, 64]          115,008
│    └─Sequential: 2-34                  [30, 64, 64, 64]          221,952
├─ModuleList: 1-14                       --                        --
│    └─ConvBlockUP: 2-35                 [30, 32, 128, 128]        26,784
│    └─Sequential: 2-36                  [30, 32, 128, 128]        37,120
├─SegHEAD: 1-15                          [30, 1, 256, 256]         --
│    └─Sequential: 2-37                  [30, 16, 256, 256]        2,096
│    └─Sequential: 2-38                  [30, 1, 256, 256]         22
==========================================================================================
Total params: 30,295,788
Trainable params: 30,295,788
Non-trainable params: 0
Total mult-adds (Units.GIGABYTES): 415.88
==========================================================================================
Input size (MB): 23.59
Forward/backward pass size (MB): 10286.53
Params size (MB): 121.18
Estimated Total Size (MB): 10431.31
…
[I 2025-08-01 13:02:34,818] Trial 11 finished with values: [0.951771005375115, 0.8332629458836757] and parameters: {'step_1': 'C', 'step_2': 'AT', 'step_3': 'C', 'step_4': 'C'}.
**************************************
Fold 4 Time: 2h 22m 6536s
**************************************
Dataset Size:
Train: 1110 - Valid: 370

Select device cuda
==========================================================================================
Layer (type:depth-idx)                   Output Shape              Param #
==========================================================================================
ResUNetAtt                               [30, 1, 256, 256]         --
├─STEM: 1-1                              [30, 32, 128, 128]        --
│    └─Conv2d: 2-1                       [30, 32, 256, 256]        864
│    └─BatchNorm2d: 2-2                  [30, 32, 256, 256]        64
│    └─ReLU: 2-3                         [30, 32, 256, 256]        --
│    └─MaxPool2d: 2-4                    [30, 32, 128, 128]        --
├─Sequential: 1-2                        [30, 64, 64, 64]          --
│    └─ResBlockAT: 2-5                   [30, 64, 64, 64]          57,728
│    └─ResBlockAT: 2-6                   [30, 64, 64, 64]          73,984
│    └─ResBlockAT: 2-7                   [30, 64, 64, 64]          73,984
├─Sequential: 1-3                        [30, 128, 32, 32]         --
│    └─ConvBlock: 2-8                    [30, 128, 32, 32]         221,696
│    └─ConvBlock: 2-9                    [30, 128, 32, 32]         295,424
│    └─ConvBlock: 2-10                   [30, 128, 32, 32]         295,424
│    └─ConvBlock: 2-11                   [30, 128, 32, 32]         295,424
├─Sequential: 1-4                        [30, 256, 16, 16]         --
│    └─ConvBlock: 2-12                   [30, 256, 16, 16]         885,760
│    └─ConvBlock: 2-13                   [30, 256, 16, 16]         1,180,672
│    └─ConvBlock: 2-14                   [30, 256, 16, 16]         1,180,672
│    └─ConvBlock: 2-15                   [30, 256, 16, 16]         1,180,672
├─Sequential: 1-5                        [30, 512, 8, 8]           --
│    └─ConvBlock: 2-16                   [30, 512, 8, 8]           3,540,992
│    └─ConvBlock: 2-17                   [30, 512, 8, 8]           4,720,640
│    └─ConvBlock: 2-18                   [30, 512, 8, 8]           4,720,640
├─ModuleList: 1-6                        --                        --
│    └─ConvBlockUP: 2-19                 [30, 256, 16, 16]         1,705,216
│    └─Sequential: 2-20                  [30, 256, 16, 16]         2,361,344
├─ModuleList: 1-7                        --                        --
│    └─ConvBlockUP: 2-21                 [30, 128, 32, 32]         426,624
│    └─Sequential: 2-22                  [30, 128, 32, 32]         886,272
├─ModuleList: 1-8                        --                        --
│    └─ConvBlockUP: 2-23                 [30, 64, 64, 64]          106,816
│    └─Sequential: 2-24                  [30, 64, 64, 64]          221,952
├─ModuleList: 1-9                        --                        --
│    └─ResBlockUPAT: 2-25                [30, 32, 128, 128]        28,832
│    └─Sequential: 2-26                  [30, 32, 128, 128]        37,120
├─SegHEAD: 1-10                          [30, 1, 256, 256]         --
│    └─Sequential: 2-27                  [30, 16, 256, 256]        2,096
│    └─Sequential: 2-28                  [30, 1, 256, 256]         22
├─ModuleList: 1-11                       --                        --
│    └─ConvBlockUP: 2-29                 [30, 256, 16, 16]         1,705,216
│    └─Sequential: 2-30                  [30, 256, 16, 16]         2,361,344
├─ModuleList: 1-12                       --                        --
│    └─ConvBlockUP: 2-31                 [30, 128, 32, 32]         426,624
│    └─Sequential: 2-32                  [30, 128, 32, 32]         886,272
├─ModuleList: 1-13                       --                        --
│    └─ConvBlockUP: 2-33                 [30, 64, 64, 64]          106,816
│    └─Sequential: 2-34                  [30, 64, 64, 64]          221,952
├─ModuleList: 1-14                       --                        --
│    └─ResBlockUPAT: 2-35                [30, 32, 128, 128]        28,832
│    └─Sequential: 2-36                  [30, 32, 128, 128]        37,120
├─SegHEAD: 1-15                          [30, 1, 256, 256]         --
│    └─Sequential: 2-37                  [30, 16, 256, 256]        2,096
│    └─Sequential: 2-38                  [30, 1, 256, 256]         22
==========================================================================================
Total params: 30,277,228
Trainable params: 30,277,228
Non-trainable params: 0
Total mult-adds (Units.GIGABYTES): 415.88
==========================================================================================
Input size (MB): 23.59
Forward/backward pass size (MB): 10475.27
Params size (MB): 121.11
Estimated Total Size (MB): 10619.98
…
[I 2025-08-02 00:58:18,647] Trial 12 finished with values: [0.9514773736437289, 0.8658019377206593] and parameters: {'step_1': 'AT', 'step_2': 'C', 'step_3': 'C', 'step_4': 'C'}.
**************************************
Fold 4 Time: 2h 23m 6497s
**************************************
Dataset Size:
Train: 1110 - Valid: 370

Select device cuda
==========================================================================================
Layer (type:depth-idx)                   Output Shape              Param #
==========================================================================================
ResUNetAtt                               [30, 1, 256, 256]         --
├─STEM: 1-1                              [30, 32, 128, 128]        --
│    └─Conv2d: 2-1                       [30, 32, 256, 256]        864
│    └─BatchNorm2d: 2-2                  [30, 32, 256, 256]        64
│    └─ReLU: 2-3                         [30, 32, 256, 256]        --
│    └─MaxPool2d: 2-4                    [30, 32, 128, 128]        --
├─Sequential: 1-2                        [30, 64, 64, 64]          --
│    └─ResBlockAT: 2-5                   [30, 64, 64, 64]          57,728
│    └─ResBlockAT: 2-6                   [30, 64, 64, 64]          73,984
│    └─ResBlockAT: 2-7                   [30, 64, 64, 64]          73,984
├─Sequential: 1-3                        [30, 128, 32, 32]         --
│    └─ResBlock: 2-8                     [30, 128, 32, 32]         230,144
│    └─ResBlock: 2-9                     [30, 128, 32, 32]         295,424
│    └─ResBlock: 2-10                    [30, 128, 32, 32]         295,424
│    └─ResBlock: 2-11                    [30, 128, 32, 32]         295,424
├─Sequential: 1-4                        [30, 256, 16, 16]         --
│    └─ConvBlock: 2-12                   [30, 256, 16, 16]         885,760
│    └─ConvBlock: 2-13                   [30, 256, 16, 16]         1,180,672
│    └─ConvBlock: 2-14                   [30, 256, 16, 16]         1,180,672
│    └─ConvBlock: 2-15                   [30, 256, 16, 16]         1,180,672
├─Sequential: 1-5                        [30, 512, 8, 8]           --
│    └─ResBlockAT: 2-16                  [30, 512, 8, 8]           3,673,088
│    └─ResBlockAT: 2-17                  [30, 512, 8, 8]           4,720,640
│    └─ResBlockAT: 2-18                  [30, 512, 8, 8]           4,720,640
├─ModuleList: 1-6                        --                        --
│    └─ResBlockUPAT: 2-19                [30, 256, 16, 16]         1,836,288
│    └─Sequential: 2-20                  [30, 256, 16, 16]         2,361,344
├─ModuleList: 1-7                        --                        --
│    └─ConvBlockUP: 2-21                 [30, 128, 32, 32]         426,624
│    └─Sequential: 2-22                  [30, 128, 32, 32]         886,272
├─ModuleList: 1-8                        --                        --
│    └─ResBlockUP: 2-23                  [30, 64, 64, 64]          115,008
│    └─Sequential: 2-24                  [30, 64, 64, 64]          221,952
├─ModuleList: 1-9                        --                        --
│    └─ResBlockUPAT: 2-25                [30, 32, 128, 128]        28,832
│    └─Sequential: 2-26                  [30, 32, 128, 128]        37,120
├─SegHEAD: 1-10                          [30, 1, 256, 256]         --
│    └─Sequential: 2-27                  [30, 16, 256, 256]        2,096
│    └─Sequential: 2-28                  [30, 1, 256, 256]         22
├─ModuleList: 1-11                       --                        --
│    └─ResBlockUPAT: 2-29                [30, 256, 16, 16]         1,836,288
│    └─Sequential: 2-30                  [30, 256, 16, 16]         2,361,344
├─ModuleList: 1-12                       --                        --
│    └─ConvBlockUP: 2-31                 [30, 128, 32, 32]         426,624
│    └─Sequential: 2-32                  [30, 128, 32, 32]         886,272
├─ModuleList: 1-13                       --                        --
│    └─ResBlockUP: 2-33                  [30, 64, 64, 64]          115,008
│    └─Sequential: 2-34                  [30, 64, 64, 64]          221,952
├─ModuleList: 1-14                       --                        --
│    └─ResBlockUPAT: 2-35                [30, 32, 128, 128]        28,832
│    └─Sequential: 2-36                  [30, 32, 128, 128]        37,120
├─SegHEAD: 1-15                          [30, 1, 256, 256]         --
│    └─Sequential: 2-37                  [30, 16, 256, 256]        2,096
│    └─Sequential: 2-38                  [30, 1, 256, 256]         22
==========================================================================================
Total params: 30,696,300
Trainable params: 30,696,300
Non-trainable params: 0
Total mult-adds (Units.GIGABYTES): 420.41
==========================================================================================
Input size (MB): 23.59
Forward/backward pass size (MB): 10711.20
Params size (MB): 122.79
Estimated Total Size (MB): 10857.58
…
[I 2025-08-02 12:58:19,349] Trial 13 finished with values: [0.9553844394695401, 0.8684791444349251] and parameters: {'step_1': 'AT', 'step_2': 'NT', 'step_3': 'C', 'step_4': 'AT'}.
**************************************
Fold 4 Time: 2h 24m 6481s
**************************************
Dataset Size:
Train: 1110 - Valid: 370

Select device cuda
==========================================================================================
Layer (type:depth-idx)                   Output Shape              Param #
==========================================================================================
ResUNetAtt                               [30, 1, 256, 256]         --
├─STEM: 1-1                              [30, 32, 128, 128]        --
│    └─Conv2d: 2-1                       [30, 32, 256, 256]        864
│    └─BatchNorm2d: 2-2                  [30, 32, 256, 256]        64
│    └─ReLU: 2-3                         [30, 32, 256, 256]        --
│    └─MaxPool2d: 2-4                    [30, 32, 128, 128]        --
├─Sequential: 1-2                        [30, 64, 64, 64]          --
│    └─ResBlock: 2-5                     [30, 64, 64, 64]          57,728
│    └─ResBlock: 2-6                     [30, 64, 64, 64]          73,984
│    └─ResBlock: 2-7                     [30, 64, 64, 64]          73,984
├─Sequential: 1-3                        [30, 128, 32, 32]         --
│    └─ConvBlock: 2-8                    [30, 128, 32, 32]         221,696
│    └─ConvBlock: 2-9                    [30, 128, 32, 32]         295,424
│    └─ConvBlock: 2-10                   [30, 128, 32, 32]         295,424
│    └─ConvBlock: 2-11                   [30, 128, 32, 32]         295,424
├─Sequential: 1-4                        [30, 256, 16, 16]         --
│    └─ResBlockAT: 2-12                  [30, 256, 16, 16]         919,040
│    └─ResBlockAT: 2-13                  [30, 256, 16, 16]         1,180,672
│    └─ResBlockAT: 2-14                  [30, 256, 16, 16]         1,180,672
│    └─ResBlockAT: 2-15                  [30, 256, 16, 16]         1,180,672
├─Sequential: 1-5                        [30, 512, 8, 8]           --
│    └─ResBlockAT: 2-16                  [30, 512, 8, 8]           3,673,088
│    └─ResBlockAT: 2-17                  [30, 512, 8, 8]           4,720,640
│    └─ResBlockAT: 2-18                  [30, 512, 8, 8]           4,720,640
├─ModuleList: 1-6                        --                        --
│    └─ResBlockUPAT: 2-19                [30, 256, 16, 16]         1,836,288
│    └─Sequential: 2-20                  [30, 256, 16, 16]         2,361,344
├─ModuleList: 1-7                        --                        --
│    └─ResBlockUPAT: 2-21                [30, 128, 32, 32]         459,392
│    └─Sequential: 2-22                  [30, 128, 32, 32]         886,272
├─ModuleList: 1-8                        --                        --
│    └─ConvBlockUP: 2-23                 [30, 64, 64, 64]          106,816
│    └─Sequential: 2-24                  [30, 64, 64, 64]          221,952
├─ModuleList: 1-9                        --                        --
│    └─ResBlockUP: 2-25                  [30, 32, 128, 128]        28,832
│    └─Sequential: 2-26                  [30, 32, 128, 128]        37,120
├─SegHEAD: 1-10                          [30, 1, 256, 256]         --
│    └─Sequential: 2-27                  [30, 16, 256, 256]        2,096
│    └─Sequential: 2-28                  [30, 1, 256, 256]         22
├─ModuleList: 1-11                       --                        --
│    └─ResBlockUPAT: 2-29                [30, 256, 16, 16]         1,836,288
│    └─Sequential: 2-30                  [30, 256, 16, 16]         2,361,344
├─ModuleList: 1-12                       --                        --
│    └─ResBlockUPAT: 2-31                [30, 128, 32, 32]         459,392
│    └─Sequential: 2-32                  [30, 128, 32, 32]         886,272
├─ModuleList: 1-13                       --                        --
│    └─ConvBlockUP: 2-33                 [30, 64, 64, 64]          106,816
│    └─Sequential: 2-34                  [30, 64, 64, 64]          221,952
├─ModuleList: 1-14                       --                        --
│    └─ResBlockUP: 2-35                  [30, 32, 128, 128]        28,832
│    └─Sequential: 2-36                  [30, 32, 128, 128]        37,120
├─SegHEAD: 1-15                          [30, 1, 256, 256]         --
│    └─Sequential: 2-37                  [30, 16, 256, 256]        2,096
│    └─Sequential: 2-38                  [30, 1, 256, 256]         22
==========================================================================================
Total params: 30,770,284
Trainable params: 30,770,284
Non-trainable params: 0
Total mult-adds (Units.GIGABYTES): 420.41
==========================================================================================
Input size (MB): 23.59
Forward/backward pass size (MB): 10616.83
Params size (MB): 123.08
Estimated Total Size (MB): 10763.51
…
[I 2025-08-04 12:19:03,516] Trial 17 finished with values: [0.9514886942769132, 0.8582100644594475] and parameters: {'step_1': 'C', 'step_2': 'AT', 'step_3': 'AT', 'step_4': 'C'}.
**************************************
Fold 4 Time: 1h 53m 3266s
**************************************
Dataset Size:
Train: 1110 - Valid: 370

Select device cuda
==========================================================================================
Layer (type:depth-idx)                   Output Shape              Param #
==========================================================================================
ResUNetAtt                               [30, 1, 256, 256]         --
├─STEM: 1-1                              [30, 32, 128, 128]        --
│    └─Conv2d: 2-1                       [30, 32, 256, 256]        864
│    └─BatchNorm2d: 2-2                  [30, 32, 256, 256]        64
│    └─ReLU: 2-3                         [30, 32, 256, 256]        --
│    └─MaxPool2d: 2-4                    [30, 32, 128, 128]        --
├─Sequential: 1-2                        [30, 64, 64, 64]          --
│    └─ConvBlock: 2-5                    [30, 64, 64, 64]          55,552
│    └─ConvBlock: 2-6                    [30, 64, 64, 64]          73,984
│    └─ConvBlock: 2-7                    [30, 64, 64, 64]          73,984
├─Sequential: 1-3                        [30, 128, 32, 32]         --
│    └─ConvBlock: 2-8                    [30, 128, 32, 32]         221,696
│    └─ConvBlock: 2-9                    [30, 128, 32, 32]         295,424
│    └─ConvBlock: 2-10                   [30, 128, 32, 32]         295,424
│    └─ConvBlock: 2-11                   [30, 128, 32, 32]         295,424
├─Sequential: 1-4                        [30, 256, 16, 16]         --
│    └─ResBlockAT: 2-12                  [30, 256, 16, 16]         919,040
│    └─ResBlockAT: 2-13                  [30, 256, 16, 16]         1,180,672
│    └─ResBlockAT: 2-14                  [30, 256, 16, 16]         1,180,672
│    └─ResBlockAT: 2-15                  [30, 256, 16, 16]         1,180,672
├─Sequential: 1-5                        [30, 512, 8, 8]           --
│    └─ResBlock: 2-16                    [30, 512, 8, 8]           3,673,088
│    └─ResBlock: 2-17                    [30, 512, 8, 8]           4,720,640
│    └─ResBlock: 2-18                    [30, 512, 8, 8]           4,720,640
├─ModuleList: 1-6                        --                        --
│    └─ResBlockUP: 2-19                  [30, 256, 16, 16]         1,836,288
│    └─Sequential: 2-20                  [30, 256, 16, 16]         2,361,344
├─ModuleList: 1-7                        --                        --
│    └─ResBlockUPAT: 2-21                [30, 128, 32, 32]         459,392
│    └─Sequential: 2-22                  [30, 128, 32, 32]         886,272
├─ModuleList: 1-8                        --                        --
│    └─ConvBlockUP: 2-23                 [30, 64, 64, 64]          106,816
│    └─Sequential: 2-24                  [30, 64, 64, 64]          221,952
├─ModuleList: 1-9                        --                        --
│    └─ConvBlockUP: 2-25                 [30, 32, 128, 128]        26,784
│    └─Sequential: 2-26                  [30, 32, 128, 128]        37,120
├─SegHEAD: 1-10                          [30, 1, 256, 256]         --
│    └─Sequential: 2-27                  [30, 16, 256, 256]        2,096
│    └─Sequential: 2-28                  [30, 1, 256, 256]         22
├─ModuleList: 1-11                       --                        --
│    └─ResBlockUP: 2-29                  [30, 256, 16, 16]         1,836,288
│    └─Sequential: 2-30                  [30, 256, 16, 16]         2,361,344
├─ModuleList: 1-12                       --                        --
│    └─ResBlockUPAT: 2-31                [30, 128, 32, 32]         459,392
│    └─Sequential: 2-32                  [30, 128, 32, 32]         886,272
├─ModuleList: 1-13                       --                        --
│    └─ConvBlockUP: 2-33                 [30, 64, 64, 64]          106,816
│    └─Sequential: 2-34                  [30, 64, 64, 64]          221,952
├─ModuleList: 1-14                       --                        --
│    └─ConvBlockUP: 2-35                 [30, 32, 128, 128]        26,784
│    └─Sequential: 2-36                  [30, 32, 128, 128]        37,120
├─SegHEAD: 1-15                          [30, 1, 256, 256]         --
│    └─Sequential: 2-37                  [30, 16, 256, 256]        2,096
│    └─Sequential: 2-38                  [30, 1, 256, 256]         22
==========================================================================================
Total params: 30,764,012
Trainable params: 30,764,012
Non-trainable params: 0
Total mult-adds (Units.GIGABYTES): 418.14
==========================================================================================
Input size (MB): 23.59
Forward/backward pass size (MB): 10239.34
Params size (MB): 123.06
Estimated Total Size (MB): 10385.99
…
