Treino: 1336	Validação: 278	Teste: 236
Dataset Size:
Train: 1336 - Valid: 278

Select device cuda
==========================================================================================
Layer (type:depth-idx)                   Output Shape              Param #
==========================================================================================
ResUNetAtt                               [24, 1, 256, 256]         --
├─STEM: 1-1                              [24, 32, 128, 128]        --
│    └─Conv2d: 2-1                       [24, 32, 256, 256]        864
│    └─BatchNorm2d: 2-2                  [24, 32, 256, 256]        64
│    └─ReLU: 2-3                         [24, 32, 256, 256]        --
│    └─MaxPool2d: 2-4                    [24, 32, 128, 128]        --
├─Sequential: 1-2                        [24, 64, 64, 64]          --
│    └─ResBlock: 2-5                     [24, 64, 64, 64]          57,728
│    └─ResBlock: 2-6                     [24, 64, 64, 64]          73,984
│    └─ResBlock: 2-7                     [24, 64, 64, 64]          73,984
│    └─ResBlock: 2-8                     [24, 64, 64, 64]          73,984
│    └─ResBlock: 2-9                     [24, 64, 64, 64]          73,984
├─Sequential: 1-3                        [24, 128, 32, 32]         --
│    └─ConvBlock: 2-10                   [24, 128, 32, 32]         221,696
│    └─ConvBlock: 2-11                   [24, 128, 32, 32]         295,424
├─Sequential: 1-4                        [24, 256, 16, 16]         --
│    └─ConvBlock: 2-12                   [24, 256, 16, 16]         885,760
│    └─ConvBlock: 2-13                   [24, 256, 16, 16]         1,180,672
│    └─ConvBlock: 2-14                   [24, 256, 16, 16]         1,180,672
├─Sequential: 1-5                        [24, 512, 8, 8]           --
│    └─ResBlock: 2-15                    [24, 512, 8, 8]           3,673,088
│    └─ResBlock: 2-16                    [24, 512, 8, 8]           4,720,640
├─ModuleList: 1-6                        --                        --
│    └─ResBlockUP: 2-17                  [24, 256, 16, 16]         1,836,288
│    └─Sequential: 2-18                  [24, 256, 16, 16]         1,180,672
├─ModuleList: 1-7                        --                        --
│    └─ResBlockUP: 2-19                  [24, 128, 32, 32]         459,392
│    └─Sequential: 2-20                  [24, 128, 32, 32]         590,848
├─ModuleList: 1-8                        --                        --
│    └─ResBlockUP: 2-21                  [24, 64, 64, 64]          115,008
│    └─Sequential: 2-22                  [24, 64, 64, 64]          73,984
├─ModuleList: 1-9                        --                        --
│    └─ResBlockUPAT: 2-23                [24, 32, 128, 128]        28,832
│    └─Sequential: 2-24                  [24, 32, 128, 128]        74,240
├─SegHEAD: 1-10                          [24, 1, 256, 256]         --
│    └─Sequential: 2-25                  [24, 16, 256, 256]        2,096
│    └─Sequential: 2-26                  [24, 1, 256, 256]         22
├─ModuleList: 1-11                       --                        --
│    └─ResBlockUP: 2-27                  [24, 256, 16, 16]         1,836,288
│    └─Sequential: 2-28                  [24, 256, 16, 16]         1,180,672
├─ModuleList: 1-12                       --                        --
│    └─ResBlockUP: 2-29                  [24, 128, 32, 32]         459,392
│    └─Sequential: 2-30                  [24, 128, 32, 32]         590,848
├─ModuleList: 1-13                       --                        --
│    └─ResBlockUP: 2-31                  [24, 64, 64, 64]          115,008
│    └─Sequential: 2-32                  [24, 64, 64, 64]          73,984
├─ModuleList: 1-14                       --                        --
│    └─ResBlockUPAT: 2-33                [24, 32, 128, 128]        28,832
│    └─Sequential: 2-34                  [24, 32, 128, 128]        74,240
├─SegHEAD: 1-15                          [24, 1, 256, 256]         --
│    └─Sequential: 2-35                  [24, 16, 256, 256]        2,096
│    └─Sequential: 2-36                  [24, 1, 256, 256]         22
==========================================================================================
Total params: 21,235,308
Trainable params: 21,235,308
Non-trainable params: 0
Total mult-adds (Units.GIGABYTES): 294.25
==========================================================================================
Input size (MB): 18.87
Forward/backward pass size (MB): 9198.11
Params size (MB): 84.94
Estimated Total Size (MB): 9301.92
…
