[I 2025-07-23 14:15:15,109] A new study created in RDB with name: Optimização do Modelo
Dataset Size:
Train: 1110 - Valid: 370

Select device cuda
==========================================================================================
Layer (type:depth-idx)                   Output Shape              Param #
==========================================================================================
ResUNetAtt                               [35, 1, 256, 256]         --
├─STEM: 1-1                              [35, 32, 128, 128]        --
│    └─Conv2d: 2-1                       [35, 32, 256, 256]        864
│    └─BatchNorm2d: 2-2                  [35, 32, 256, 256]        64
│    └─ReLU: 2-3                         [35, 32, 256, 256]        --
│    └─MaxPool2d: 2-4                    [35, 32, 128, 128]        --
├─Sequential: 1-2                        [35, 64, 64, 64]          --
│    └─ConvBlock: 2-5                    [35, 64, 64, 64]          55,552
│    └─ConvBlock: 2-6                    [35, 64, 64, 64]          73,984
│    └─ConvBlock: 2-7                    [35, 64, 64, 64]          73,984
├─Sequential: 1-3                        [35, 128, 32, 32]         --
│    └─ResBlockAT: 2-8                   [35, 128, 32, 32]         230,144
│    └─ResBlockAT: 2-9                   [35, 128, 32, 32]         295,424
│    └─ResBlockAT: 2-10                  [35, 128, 32, 32]         295,424
│    └─ResBlockAT: 2-11                  [35, 128, 32, 32]         295,424
├─Sequential: 1-4                        [35, 256, 16, 16]         --
│    └─ConvBlock: 2-12                   [35, 256, 16, 16]         885,760
│    └─ConvBlock: 2-13                   [35, 256, 16, 16]         1,180,672
│    └─ConvBlock: 2-14                   [35, 256, 16, 16]         1,180,672
│    └─ConvBlock: 2-15                   [35, 256, 16, 16]         1,180,672
├─Sequential: 1-5                        [35, 512, 8, 8]           --
│    └─ResBlockAT: 2-16                  [35, 512, 8, 8]           3,673,088
│    └─ResBlockAT: 2-17                  [35, 512, 8, 8]           4,720,640
│    └─ResBlockAT: 2-18                  [35, 512, 8, 8]           4,720,640
├─ModuleList: 1-6                        --                        --
│    └─ResBlockUPAT: 2-19                [35, 256, 16, 16]         1,836,288
│    └─Sequential: 2-20                  [35, 256, 16, 16]         2,361,344
├─ModuleList: 1-7                        --                        --
│    └─ConvBlockUP: 2-21                 [35, 128, 32, 32]         426,624
│    └─Sequential: 2-22                  [35, 128, 32, 32]         886,272
├─ModuleList: 1-8                        --                        --
│    └─ResBlockUPAT: 2-23                [35, 64, 64, 64]          115,008
│    └─Sequential: 2-24                  [35, 64, 64, 64]          221,952
├─ModuleList: 1-9                        --                        --
│    └─ConvBlockUP: 2-25                 [35, 32, 128, 128]        26,784
│    └─Sequential: 2-26                  [35, 32, 128, 128]        37,120
├─SegHEAD: 1-10                          [35, 1, 256, 256]         --
│    └─Sequential: 2-27                  [35, 16, 256, 256]        2,096
│    └─Sequential: 2-28                  [35, 1, 256, 256]         22
├─ModuleList: 1-11                       --                        --
│    └─ResBlockUPAT: 2-29                [35, 256, 16, 16]         1,836,288
│    └─Sequential: 2-30                  [35, 256, 16, 16]         2,361,344
├─ModuleList: 1-12                       --                        --
│    └─ConvBlockUP: 2-31                 [35, 128, 32, 32]         426,624
│    └─Sequential: 2-32                  [35, 128, 32, 32]         886,272
├─ModuleList: 1-13                       --                        --
│    └─ResBlockUPAT: 2-33                [35, 64, 64, 64]          115,008
│    └─Sequential: 2-34                  [35, 64, 64, 64]          221,952
├─ModuleList: 1-14                       --                        --
│    └─ConvBlockUP: 2-35                 [35, 32, 128, 128]        26,784
│    └─Sequential: 2-36                  [35, 32, 128, 128]        37,120
├─SegHEAD: 1-15                          [35, 1, 256, 256]         --
│    └─Sequential: 2-37                  [35, 16, 256, 256]        2,096
│    └─Sequential: 2-38                  [35, 1, 256, 256]         22
==========================================================================================
Total params: 30,690,028
Trainable params: 30,690,028
Non-trainable params: 0
Total mult-adds (Units.GIGABYTES): 487.83
==========================================================================================
Input size (MB): 27.53
Forward/backward pass size (MB): 12056.00
Params size (MB): 122.76
Estimated Total Size (MB): 12206.29
…
