[I 2025-07-03 13:12:49,966] A new study created in RDB with name: Optimização do Modelo
Treino: 1336	Validação: 278	Teste: 236
Dataset Size:
Train: 1336 - Valid: 278

Select device cuda
==========================================================================================
Layer (type:depth-idx)                   Output Shape              Param #
==========================================================================================
ResUNetAtt                               [35, 1, 256, 256]         --
├─STEM: 1-1                              [35, 32, 128, 128]        --
│    └─Conv2d: 2-1                       [35, 32, 256, 256]        864
│    └─BatchNorm2d: 2-2                  [35, 32, 256, 256]        64
│    └─ReLU: 2-3                         [35, 32, 256, 256]        --
│    └─MaxPool2d: 2-4                    [35, 32, 128, 128]        --
├─Sequential: 1-2                        [35, 64, 64, 64]          --
│    └─ConvBlock: 2-5                    [35, 64, 64, 64]          55,552
│    └─ConvBlock: 2-6                    [35, 64, 64, 64]          73,984
│    └─ConvBlock: 2-7                    [35, 64, 64, 64]          73,984
├─Sequential: 1-3                        [35, 128, 32, 32]         --
│    └─ResBlockAT: 2-8                   [35, 128, 32, 32]         230,144
│    └─ResBlockAT: 2-9                   [35, 128, 32, 32]         295,424
│    └─ResBlockAT: 2-10                  [35, 128, 32, 32]         295,424
│    └─ResBlockAT: 2-11                  [35, 128, 32, 32]         295,424
├─Sequential: 1-4                        [35, 256, 16, 16]         --
│    └─ConvBlock: 2-12                   [35, 256, 16, 16]         885,760
│    └─ConvBlock: 2-13                   [35, 256, 16, 16]         1,180,672
│    └─ConvBlock: 2-14                   [35, 256, 16, 16]         1,180,672
├─Sequential: 1-5                        [35, 512, 8, 8]           --
│    └─ResBlock: 2-15                    [35, 512, 8, 8]           3,673,088
│    └─ResBlock: 2-16                    [35, 512, 8, 8]           4,720,640
│    └─ResBlock: 2-17                    [35, 512, 8, 8]           4,720,640
├─ModuleList: 1-6                        --                        --
│    └─ResBlockUP: 2-18                  [35, 256, 16, 16]         1,836,288
│    └─Sequential: 2-19                  [35, 256, 16, 16]         2,361,344
├─ModuleList: 1-7                        --                        --
│    └─ConvBlockUP: 2-20                 [35, 128, 32, 32]         426,624
│    └─Sequential: 2-21                  [35, 128, 32, 32]         590,848
├─ModuleList: 1-8                        --                        --
│    └─ConvBlockUP: 2-22                 [35, 64, 64, 64]          106,816
│    └─Sequential: 2-23                  [35, 64, 64, 64]          221,952
├─ModuleList: 1-9                        --                        --
│    └─ResBlockUPAT: 2-24                [35, 32, 128, 128]        28,832
│    └─Sequential: 2-25                  [35, 32, 128, 128]        37,120
├─SegHEAD: 1-10                          [35, 1, 256, 256]         --
│    └─Sequential: 2-26                  [35, 16, 256, 256]        2,096
│    └─Sequential: 2-27                  [35, 1, 256, 256]         22
├─ModuleList: 1-11                       --                        --
│    └─ResBlockUP: 2-28                  [35, 256, 16, 16]         1,836,288
│    └─Sequential: 2-29                  [35, 256, 16, 16]         2,361,344
├─ModuleList: 1-12                       --                        --
│    └─ConvBlockUP: 2-30                 [35, 128, 32, 32]         426,624
│    └─Sequential: 2-31                  [35, 128, 32, 32]         590,848
├─ModuleList: 1-13                       --                        --
│    └─ConvBlockUP: 2-32                 [35, 64, 64, 64]          106,816
│    └─Sequential: 2-33                  [35, 64, 64, 64]          221,952
├─ModuleList: 1-14                       --                        --
│    └─ResBlockUPAT: 2-34                [35, 32, 128, 128]        28,832
│    └─Sequential: 2-35                  [35, 32, 128, 128]        37,120
├─SegHEAD: 1-15                          [35, 1, 256, 256]         --
│    └─Sequential: 2-36                  [35, 16, 256, 256]        2,096
│    └─Sequential: 2-37                  [35, 1, 256, 256]         22
==========================================================================================
Total params: 28,906,220
Trainable params: 28,906,220
Non-trainable params: 0
Total mult-adds (Units.GIGABYTES): 456.12
==========================================================================================
Input size (MB): 27.53
Forward/backward pass size (MB): 11835.80
Params size (MB): 115.62
Estimated Total Size (MB): 11978.95
…
